cifar_cnn_model_light.pth (torch, 75240 bytes, 8 tensors)

conv.0.weight f4 [8, 3, 3, 3]
0.08565459 0.20634475 0.010974483 0.2778846 0.24375303 0.19013143 0.095880374 0.4313428
0.4379707 -0.26024628 0.19800174 0.13694969 -0.14720912 0.011085698 0.046347693 -0.36407748
0.019450054 -0.025063539 -0.18062228 0.04019645 -0.052220624 -0.28532022 -0.13892156 -0.012217583
-0.38184655 -0.18582158 -0.13346906 -0.30224612 0.10319538 -0.3900524 0.11109844 -0.312541
-0.034737274 -0.11715058 -0.18299605 0.20965242 0.09790878 0.52362764 0.075261414 0.13972999
0.1811943 0.034017377 0.13794072 0.27833238 0.44036618 -0.26034138 0.23357685 -0.17505488
0.099017866 -0.26160723 -0.37362298 -0.18594846 -0.2837521 0.26568195 0.2809325 0.1267472
-0.20151377 0.27795112 0.11104099 -0.45554185 -0.0047454676 -0.19632772 0.08535591 0.15786447
0.0766718 -0.36283195 0.45697677 -0.14551948 -0.41658086 -0.149945 0.08300755 0.11074611
0.47338054 -0.079517975 -0.42038593 0.1614916 -0.14440149 -0.15682362 0.0058903154 0.060811065
0.00073114625 -0.1714382 0.07104694 -0.11014608 0.07318044 -0.07824276 0.076675236 -0.18380311
-0.12858641 0.03749509 -0.004782248 -0.083626136 0.07999906 0.084351465 -0.17550889 -0.13702422
0.14427243 -0.09745877 -0.08141083 -0.2261618 -0.14345802 0.011399829 -0.064170666 -0.17997573
-0.043953888 -0.16570438 -0.19834064 -0.14275892 -0.43498623 -0.20667052 0.22382037 -0.2750588
0.19390237 0.064263396 -0.15030524 0.12552547 0.20191914 -0.47847062 -0.14898196 -0.04089401
-0.2913159 0.109431304 0.273333 -0.16750415 0.04931675 0.04694038 -0.313751 -0.14428814
0.21562925 -0.19429463 0.45801502 0.3558534 -0.14951006 0.39762136 0.06314673 -0.15292215
-0.26019537 -0.2999515 -0.1507111 -0.28932774 -0.076917514 -0.23825176 -0.03297038 -0.28640842
0.006105461 0.1050947 0.04663323 0.19026214 0.21919425 -0.10468782 0.13959199 -0.04032568
-0.0026455536 -0.06025405 0.352036 -0.1626427 0.25347906 0.28542328 0.21887392 0.04175813
0.33735156 0.13108902 0.010834971 -0.24004103 -0.08306023 0.04207173 -0.0007459811 0.171853
0.067546636 0.0007196549 0.08405725 0.058529418 0.13285299 -0.03417532 -0.054429706 0.019707808
-0.07829974 -0.016526608 0.12941065 -0.06951952 0.32045338 0.2760157 0.12940724 0.16960841
0.3213571 0.24886686 0.15416749 0.099015005 0.18285805 -0.0353519 -0.22284834 -0.20854068
0.2939469 0.4056294 0.1102048 -0.06913889 0.044389196 0.059565287 -0.13331918 -0.30543908
-0.49268648 0.012389198 0.32752907 0.108616255 -0.09889022 -0.13115238 -0.09129277 -0.19651693
-0.30285785 -0.10229997 0.329153 0.33797142 -0.03198698 -0.07565279 0.03661638 0.29425234
00000000: ac6b af3d 0a4c 533e 51ce 333c e446 8e3e
00000010: 659a 793e d0b1 423e ee5c c43d f7d8 dc3e
00000020: b23d e03e 003f 85be f8c0 4a3e 8a3c 0c3e
00000030: fdbd 16be caa0 353c 14d7 3d3d 5d68 babe
00000040: b855 9f3c 0d52 cdbc 0cf5 38be 08a5 243d
00000050: 4be5 55bd 7e15 92be 7441 0ebe 422c 48bc
00000060: 6481 c3be 0348 3ebe 1dac 08be 01c0 9abe
00000070: 1958 d33d f3b4 c7be 9487 e33d 6005 a0be
00000080: ac48 0ebd a5ec efbd 5163 3bbe 20af 563e
00000090: 6684 c83d 760c 063f a822 9a3d 6115 0f3e
000000a0: 008b 393e ce55 0b3d 5540 0d3e 9581 8e3e
000000b0: ad77 e13e 774b 85be c52e 6f3e 9641 33be
000000c0: e1c9 ca3d 62f1 85be 834b bfbe 4669 3ebe
000000d0: f547 91be 7707 883e 62d6 8f3e 05ca 013e
000000e0: a059 4ebe 9c4f 8e3e 7569 e33d c83c e9be
000000f0: de7f 9bbb 220a 49be 14cf ae3d 39a7 213e
00000100: 1b06 9d3d 1cc5 b9be dcf8 e93e 0f03 15be
00000110: 164a d5be 2f8b 19be ddff a93d dbce e23d
00000120: ef5e f23e 52da a2bd d33c d7be 0e5e 253e
00000130: fcdd 13be 5f96 20be 8c03 c13b 0615 793d
00000140: 65aa 3f3a 7f8d 2fbe 0f81 913d 4594 e1bd
00000150: a0df 953d bd3d a0bd e807 9d3d e236 3cbe
00000160: 28ac 03be 7494 193d 67b4 9cbb 2e44 abbd
00000170: 8cd6 a33d 76c0 ac3d 9ab8 33be 1450 0cbe
00000180: 27bc 133e 7798 c7bd b9ba a6bd f596 67be
00000190: a9e6 12be 59c6 3a3c e96b 83bd 8f4b 38be
000001a0: fe08 34bd 69ae 29be cf19 4bbe 652f 12be
000001b0: 84b6 debe 70a1 53be 2b31 653e 82d4 8cbe
000001c0: 588e 463e 879c 833d 9ee9 19be c089 003e
000001d0: e4c3 4e3e 1afa f4be ba8e 18be 7a80 27bd
000001e0: 5c27 95be 851d e03d 4ef2 8b3e 3586 2bbe
000001f0: 5c00 4a3d 8e44 403d f9a3 a0be 45c0 13be
00000200: eacd 5c3e 2cf5 46be f280 ea3e 6b32 b63e
00000210: 2a19 19be 0795 cb3e 1353 813d a097 1cbe
00000220: 5438 85be 3e93 99be 0354 1abe c422 94be
00000230: ee86 9dbd 45f8 73be f30b 07bd 20a4 92be
00000240: 5210 c83b e43b d73d 7c02 3f3d 14d4 423e
00000250: 7574 603e 9166 d6bd 34f1 0e3e 8a2c 25bd
00000260: 0661 2dbb f3cc 76bd 103e b43e cf8b 26be
00000270: 02c8 813e 0023 923e 7c20 603e 930a 2b3d
00000280: 58b9 ac3e 333c 063e 2a85 313c 51cd 75be
00000290: 7b1b aabd 6853 2c3d f28d 43ba 3cfa 2f3e
000002a0: e455 8a3d 39a7 3c3a 3526 ac3d 8bbc 6f3d
000002b0: 9d0a 083e 6cfb 0bbd aff1 5ebd 4572 a13c
000002c0: 9d5b a0bd cf62 87bc 3a84 043e 4060 8ebd
000002d0: 7712 a43e ee51 8d3e 5583 043e d4ad 2d3e
000002e0: eb88 a43e f4d6 7e3e 15de 1d3e 61c8 ca3d
000002f0: 243f 3b3e 27cd 10bd 5b32 64be b08b 55be
00000300: 3580 963e a8ae cf3e 0eb3 e13d b198 8dbd
00000310: 72d1 353d bbfa 733d d384 08be 8362 9cbe
00000320: 6741 fcbe 10fc 4a3c e4b1 a73e 3372 de3d
00000330: f586 cabd cf4c 06be b4f7 babd bc3b 49be
00000340: 2f10 9bbe a682 d1bd be86 a83e 970a ad3e
00000350: c804 03bd daef 9abd 0ffb 153d 3ea8 963e

conv.0.bias f4 [8]
-0.065429136 0.040764954 0.16439733 -0.12181507 0.013159575 0.12570916 -0.3670344 0.086324744
00000000: b6ff 85bd 27f9 263d c657 283e 2e7a f9bd
00000010: 429b 573c e7b9 003e efeb bbbe 07cb b03d

conv.3.weight f4 [16, 8, 3, 3]
0.024407938 0.3210797 0.48603958 0.12551142 -0.13773394 -0.02501312 -0.50987726 -0.24170096
-0.16476499 0.30940202 0.17874992 0.0834839 -0.092777 -0.4413468 -0.34276626 -0.8988414
-0.48288622 -0.17523278 -0.27481043 -0.042969592 -0.08471373 0.27325246 0.5348598 0.5268216
0.14361966 0.07684795 -0.10878384 -0.11621243 0.0014081072 -0.07259764 -0.03605556 -0.108847864
0.06244176 -0.09732781 0.059234068 0.039227307 0.11633187 -0.24029613 -0.44244465 -0.13082643
-0.50453633 0.11955817 -0.42335907 0.518756 0.43984276 0.024820495 0.15487805 -0.04776845
0.37089267 0.25618878 0.2343321 -0.10497405 -0.2266535 0.0045593563 0.08087461 -0.068397686
0.10189411 -0.06741932 -0.15994231 -0.1872318 -0.12366721 -0.37591192 -0.11258512 0.12139747
-0.086979955 -0.02831045 0.22420739 -0.15015242 -0.05914855 -0.00014658668 -0.012963798 0.009436668
0.090639964 0.065724656 -0.08185791 0.05541552 0.071831904 -0.121120706 -0.24805175 -0.41893026
-0.18227431 0.06664616 -0.08182826 -0.10403277 0.08165264 0.069086805 -0.011149204 -0.11404351
-0.3070838 -0.04189086 0.288896 -0.1005495 -0.060551815 0.24427351 0.29748824 0.1796132
-0.28064287 0.08772852 0.09927121 0.060415894 -0.0745749 -0.09450305 -0.08053518 -0.11630465
-0.09093853 -0.02914428 0.07953504 0.019726187 -0.19112034 -0.29113486 -0.009105863 0.17449808
0.15069854 -0.48772442 0.076354384 -0.90873885 -0.8301301 -0.24014533 -0.1553473 -0.01594063
-0.21277331 0.12651664 0.21368776 -0.17793335 -0.19015107 -0.089295045 0.07696306 0.15970479
0.24675846 0.20106223 0.14057921 0.16891731 0.112241045 -0.021484524 -0.23207402 0.24169391
0.05818828 -0.03074194 0.06692121 0.1256649 -0.056182712 0.0810901 -1.5105041 -0.6167235
-0.2356523 -0.020301646 0.13308516 0.089556955 -0.22543709 -0.2192798 -0.15624915 -0.04834627
-0.08173719 0.14410688 0.21689203 0.13481452 0.26824683 0.25485793 0.31431192 -0.021851372
0.22638819 0.5163226 0.0342624 -0.3110162 0.14058949 -0.14482976 0.22534141 0.0057992456
0.22143874 0.1668162 0.31293923 -0.08096485 -0.052363742 -0.032223605 0.050378796 -0.021599928
-0.029063381 0.07959285 0.025549812 0.0053172465 -0.30214432 -0.69257444 -0.10711849 -0.2867681
-0.5377291 -0.59226334 -0.47023195 -0.41876522 -0.23999317 0.0071517476 -0.13942754 -0.05901345
0.043865647 -0.022711216 -0.422638 -0.1340912 -0.41669393 -0.3560167 -0.3582873 0.01439736
0.40156594 0.047251854 -0.05231025 -0.21565701 -0.014153177 0.0036856784 0.096711606 0.2573226
-0.17949781 0.48882678 0.2926084 0.5379171 -0.3212353 0.026556242 -0.0014799387 0.4296731
-0.06731739 -0.18373822 0.098362096 0.00521566 -0.13865158 0.15049009 -0.34228036 -0.16144039
0.34395975 0.07210766 -0.27275696 -0.5753025 0.049861755 -0.18620135 -0.32250834 0.29942736
0.11095342 0.29210964 -0.062384263 -0.15307416 -0.1698267 0.019352991 -0.0025435884 -0.24567263
0.15476902 -0.0624407 0.16377153 -0.06437116 0.11365673 0.10074596 0.10553385 0.06917994
0.08501709 -0.01226495 -0.06484498 0.05888509 -0.14092232 -0.091055386 -0.33890966 0.089884
00000000: 28f3 c73c 8f64 a43e 2eda f83e 1186 003e
00000010: 200a 0dbe 51e8 ccbc 5187 02bf 7580 77be
00000020: 27b8 28be f169 9e3e 380a 373e 9bf9 aa3d
00000030: de01 bebd 35f8 e1be 0f7f afbe 781a 66bf
00000040: dd3c f7be 3970 33be f4b3 8cbe e200 30bd
00000050: 647e adbd bfe7 8b3e 92ec 083f c8dd 063f
00000060: 0811 133e 7562 9d3d 10ca debd c800 eebd
00000070: 3d90 b83a 12ae 94bd ffae 13bd a1eb debd
00000080: eec2 7f3d ce53 c7bd 6c9f 723d d0ac 203d
00000090: 673f ee3d 3010 76be 1b88 e2be 5df7 05be
000000a0: 4b29 01bf eada f43d 85c2 d8be 31cd 043f
000000b0: 1233 e13e 5a54 cb3c 5a98 1e3e daa8 43bd
000000c0: a5e5 bd3e 2d2b 833e c1f4 6f3e a2fc d6bd
000000d0: db17 68be a766 953b 96a1 a53d 1614 8cbd
000000e0: dcad d03d 2413 8abd ebc7 23be b1b9 3fbe
000000f0: 3c45 fdbd 8777 c0be 0793 e6bd 3d9f f83d
00000100: 8c22 b2bd 51eb e7bc 9f96 653e 8ec1 19be
00000110: c045 72bd 10b5 19b9 1c66 54bc 419c 1a3c
00000120: 72a1 b93d a69a 863d 1fa5 a7bd 62fb 623d
00000130: 9b1c 933d 220e f8bd 4701 7ebe 077e d6be
00000140: 1ea6 3abe c87d 883d 9395 a7bd 220f d5bd
00000150: 8039 a73d 627d 8d3d 27ab 36bc a58f e9bd
00000160: 163a 9dbe c095 2bbd 2dea 933e e5ec cdbd
00000170: 2e05 78bd d622 7a3e 6150 983e 86ec 373e
00000180: 6cb0 8fbe 03ab b33d b44e cb3d a876 773d
00000190: baba 98bd d18a c1bd a1ef a4bd 2231 eebd
000001a0: fb3d babd fcbf eebc 44e3 a23d d098 a13c
000001b0: 0db5 43be a10f 95be c230 15bc a0af 323e
000001c0: b850 1a3e 04b7 f9be b05f 9c3d 1ca3 68bf
000001d0: 6883 54bf a8e8 75be 5d13 1fbe ed95 82bc
000001e0: 3fe1 59be 948d 013e f7d0 5a3e 2934 36be
000001f0: f6b6 42be 52e0 b6bd cf9e 9d3d a789 233e
00000200: 40ae 7c3e 42e3 4d3e fff3 0f3e a9f8 2c3e
00000210: a2de e53d 5000 b0bc d0a4 6dbe 9c7e 773e
00000220: d556 6e3d 85d6 fbbc fd0d 893d 4dae 003e
00000230: d81f 66bd 9112 a63d 3358 c1bf 97e1 1dbf
00000240: d64e 71be a34f a6bc 7a47 083e a369 b73d
00000250: fbd8 66be e28a 60be c7ff 1fbe bd06 46bd
00000260: d465 a7bd c190 133e f218 5e3e d10c 0a3e
00000270: a657 893e bd7c 823e 7eed a03e a601 b3bc
00000280: 4ed2 673e b82d 043f bb56 0c3d 843d 9fbe
00000290: b1f6 0f3e 414e 14be e6bf 663e 9907 be3b
000002a0: d6c0 623e ded1 2a3e 9239 a03e e6d0 a5bd
000002b0: 5d7b 56bd e6fc 03bd ff59 4e3d 55f2 b0bc
000002c0: 5416 eebc 9301 a33d d74d d13c 4c3c ae3b
000002d0: a9b2 9abe 8f4c 31bf f060 dbbd 45d3 92be
000002e0: 9da8 09bf 929e 17bf 3ec2 f0be 6568 d6be
000002f0: c5c0 75be 3559 ea3b 18c6 0ebe 16b8 71bd
00000300: 77ac 333d df0c babc 0264 d8be 344f 09be
00000310: e858 d5be d247 b6be 6f71 b7be e8e2 6b3c
00000320: 0d9a cd3e 298b 413d 4643 56bd 31d5 5cbe
00000330: bae2 67bc 6c8b 713b bc10 c63d cabf 833e
00000340: 46ce 37be 8147 fa3e c5d0 953e efb4 093f
00000350: f478 a4be 7a8c d93c 81fa c1ba 1dfe db3e
00000360: b3dd 89bd df25 3cbe 1172 c93d 21e8 aa3b
00000370: aefa 0dbe 131a 1a3e 5f3f afbe a150 25be
00000380: 7e1b b03e 2ead 933d cda6 8bbe 0647 13bf
00000390: d73b 4c3d 91ab 3ebe d01f a5be 8b4e 993e
000003a0: 8c3b e33d 658f 953e a486 7fbd 79bf 1cbe
000003b0: 0de7 2dbe 2a8a 9e3c 55b2 26bb 9b91 7bbe
000003c0: c57b 1e3e d2c1 7fbd b9b3 273e 07d5 83bd
000003d0: dcc4 e83d e653 ce3d 2222 d83d 36ae 8d3d
000003e0: 711d ae3d eef2 48bc 72cd 84bd 7e31 713d
000003f0: f14d 10be 3f7b babd 9185 adbe 1a15 b83d

conv.3.bias f4 [16]
0.3223555 -0.19273323 0.23900749 0.326942 0.22074881 -0.20272553 0.36557424 -0.2314675
-0.055657562 0.23887399 0.24292395 -0.00026966038 -0.0922594 0.06983313 0.10963562 -0.17263862
00000000: c80b a53e dc5b 45be 61be 743e f164 a73e
00000010: fa0b 623e 4897 4fbe 8c2c bb3e d105 6dbe
00000020: 2ff9 63bd 629b 743e 0ec1 783e 3461 8db9
00000030: 7ff2 bcbd ac04 8f3d a488 e03d 2ec8 30be

linear.0.weight f4 [16, 1024]
0.024630822 -0.0037245422 0.02189901 0.0111871855 0.009419165 0.014394865 -0.012257436 -0.018236205
-0.01011686 -0.029659728 -0.017801234 0.0064247353 -0.01516947 -0.006022364 0.0045684245 0.005755864
-0.017168857 0.0019702795 -0.008395402 0.00465429 0.00080273725 -0.011276731 -0.0005028364 0.008668382
-0.020973483 -0.0033290046 -0.015591491 -0.0020957298 -0.0025881645 0.024343073 0.0029904258 -0.010183271
0.013319569 -0.018785223 -0.004692416 -0.011448474 -0.019726524 -0.006846439 0.03722094 0.027370976
0.009423162 0.029967258 -0.013897621 0.010744332 0.022311242 0.024078332 -0.026893437 0.011718873
-0.019554574 0.0023247306 -0.0052985074 -0.02550204 -0.032874264 -0.026897017 0.0072151334 0.009262741
-0.025217548 -0.0063322587 0.0057052406 -0.022403443 0.015771853 0.02522303 0.00266805 -0.027613731
-0.00088719645 0.011344176 0.024745096 -0.016627185 -0.02799718 0.013729706 0.0019455105 -0.010182075
-0.013094448 -0.016112994 0.025296781 -0.0053918473 0.02253772 0.027895302 0.0039586276 0.0066567995
-0.0021282732 0.02146298 -0.028158996 0.0124275945 -0.0050915256 0.014269259 -0.00013918802 -0.011570815
-0.0033734366 0.016874775 -0.02170406 -0.019753098 -0.0069998875 -0.011335142 0.012276225 0.021030307
-0.0033468306 0.029549181 -0.013056874 -0.01753623 -0.0139904395 -0.021530386 -0.021904182 -0.027844235
-0.027696226 0.008156206 0.019057937 0.029338978 0.026618667 -0.0017998032 0.006063957 -0.018697493
0.012078784 -0.029963784 0.014739778 0.0057317354 0.009603258 0.011442136 -0.0069888704 0.026815824
0.02768235 0.019261697 -0.0032273312 0.01962458 0.013475578 0.0017950542 0.015198003 -0.0030144819
0.025628788 0.01672625 0.025977587 0.03881941 0.014817418 -0.00306685 0.007740115 0.015458038
0.011049175 -0.005341285 0.024461567 0.018863829 -0.013089944 -0.0008144808 0.01084732 -0.016662145
0.009013332 -0.008578502 -0.021672284 -0.01340129 -0.014902801 0.02324812 0.016853258 0.031073509
0.009373406 0.0024763483 0.0035746405 -0.0060610604 -0.034305625 -0.02090261 0.0015037605 -0.0018466596
0.013866321 0.01963628 0.03270354 -0.009429691 -0.018830305 -0.021878073 -0.013801569 -0.017513216
0.0125551075 0.012939569 0.040950235 -0.013565805 -0.010345952 -0.010034993 -0.0016901484 0.011246399
0.000979644 -0.0014631669 0.0035979643 0.008260384 -0.017375957 -0.0162408 -0.0030207813 -0.0049556005
-0.016010035 0.01726776 0.0037123004 0.0029174767 -0.014755203 -0.0063687596 -0.03083306 0.005519352
-0.0048714485 0.014549989 -0.002947038 -0.0013639051 0.004454924 0.018071966 -0.019005775 0.014143015
0.0030015644 -0.024645777 0.0063563734 -0.022185192 -0.012761876 -0.02010841 -0.022948848 0.0210756
-0.031994984 0.012839283 -0.030049022 -0.0077887806 -0.0023603672 0.018477965 -0.015665546 0.0063249334
-0.0008233595 0.016603496 -0.0011747659 0.009089285 -0.023537243 -0.027070051 0.026111608 -0.023508335
-0.012323266 -0.009545856 0.025423268 -0.009727422 -0.029881177 -0.013505664 0.012498229 0.014521506
0.020411838 -0.0072346088 0.011385335 -0.03059072 0.010244148 0.010491497 0.016562684 -0.020221002
-0.014003557 0.005948904 -0.02410317 -0.026884446 -0.032643814 -0.003522004 0.015934212 0.0055560693
-0.0004977253 0.0098793255 -0.021966353 0.001126008 -0.012064947 -0.017836405 0.024345184 -0.02699111
00000000: 94c6 c93c 7317 74bb 8d65 b33c 754a 373c
00000010: d752 1a3c 71d8 6b3c 6ad3 48bc 1864 95bc
00000020: 30c1 25bc f5f8 f2bc e5d3 91bc 9686 d23b
00000030: 5e89 78bc 4057 c5bb b9b2 953b b09b bc3b
00000040: b4a5 8cbc ce1f 013b de8c 09bc 0483 983b
00000050: c96e 523a 0ac2 38bc c8d0 03ba d405 0e3c
00000060: 95d0 abbc 6e2b 5abb 7473 7fbc 8358 09bb
00000070: 329e 29bb 206b c73c 05fb 433b bcd7 26bc
00000080: 523a 5a3c 78e3 99bc d7c2 99bb 6192 3bbc
00000090: 8599 a1bc 1858 e0bb fc74 183d 1939 e03c
000000a0: 9b63 1a3c e57d f53c d9b2 63bc ff08 303c
000000b0: 11c6 b63c ec3f c53c a04f dcbc 8400 403c
000000c0: ea30 a0bc 825a 183b 1a9f adbb a7e9 d0bc
000000d0: 2aa7 06bd 2257 dcbc ed6c ec3b c0c2 173c
000000e0: 0895 cebc d67e cfbb 07f3 ba3b 6d87 b7bc
000000f0: f933 813c 87a0 ce3c 73da 2e3b 3136 e2bc
00000100: bf92 68ba ecdc 393c 3ab6 ca3c bc35 88bc
00000110: 585a e5bc 90f2 603c 8000 ff3a b8d2 26bc
00000120: 188a 56bc 66ff 83bc 323b cf3c 18ae b0bb
00000130: 06a1 b83c b084 e43c 60b7 813b 4821 da3b
00000140: 807a 0bbb 22d3 af3c b2ad e6bc 1c9d 4b3c
00000150: d0d6 a6bb 9cc9 693c 00f3 11b9 8493 3dbc
00000160: e014 5dbb f83c 8a3c b6cc b1bc 40d1 a1bc
00000170: 505f e5bb 08b7 39bc 3822 493c c047 ac3c
00000180: 8056 5bbb 2011 f23c 80ec 55bc 24a8 8fbc
00000190: 2838 65bc 7e60 b0bc 6670 b3bc 9819 e4bc
000001a0: 32e3 e2bc 9ca1 053c 641f 9c3c 4c58 f03c
000001b0: 640f da3c 60e7 ebba 28b4 c63b 7c2b 99bc
000001c0: 18e6 453c 9c76 f5bc 1c7f 713c 48d1 bb3b
000001d0: fc56 1d3c cc77 3b3c e502 e5bb dcac db3c
000001e0: 18c6 e23c b5ca 9d3c a281 53bb bac3 a03c
000001f0: acc8 5c3c 0648 eb3a 0b01 793c 9d8e 45bb
00000200: 77f3 d13c 7d05 893c f3ce d43c 1a01 1f3d
00000210: c1c4 723c 34fd 48bb caa0 fd3b b643 7d3c
00000220: 9907 353c f205 afbb a063 c83c 5188 9a3c
00000230: 3477 56bc e282 55ba f5b8 313c 0d7f 88bc
00000240: a8ac 133c d88c 0cbc 138a b1bc 1691 5bbc
00000250: e12a 74bc d772 be3c d80f 8a3c df8d fe3c
00000260: ea92 193c 3b4a 223b 8444 6a3b dc9b c6bb
00000270: 0e84 0cbd f33b abbc d419 c53a 9d0b f2ba
00000280: 912f 633c 44dc a03c 26f4 053d fe7e 1abc
00000290: 0342 9abc a539 b3bc fa1f 62bc e077 8fbc
000002a0: f0b3 4d3c 7c00 543c 6fbb 273d 1c43 5ebc
000002b0: 1182 29bc d069 24bc f887 ddba d142 383c
000002c0: 6667 803a bcc7 bfba d3cb 6b3b 9056 073c
000002d0: 0658 8ebc 6d0b 85bc 4df8 45bb 9762 a2bb
000002e0: 7a27 83bc 1e75 8d3c 114a 733b 2333 3f3b
000002f0: cfbf 71bc 07b1 d0bb 9d95 fcbc aedb b43b
00000300: aca0 9fbb 1463 6e3c 1823 41bb 10c5 b2ba
00000310: 9cfa 913b a90b 943c 00b2 9bbc 1bb8 673c
00000320: e5b5 443b f1e5 c9bc 2049 d03b b8bd b5bc
00000330: 3017 51bc 64ba a4bc 39ff bbbc bda6 ac3c
00000340: 2c0d 03bd db5b 523c 5e29 f6bc 0739 ffbb
00000350: 64b0 1abb 1a5f 973c 0855 80bc 6341 cf3b
00000360: b9d6 57ba 0e04 883c 9afa 99ba 39eb 143c
00000370: 2dd1 c0bc 03c2 ddbc 03e8 d53c 8d94 c0bc
00000380: 86e7 49bc 3966 1cbc 7544 d03c c45f 1fbc
00000390: 5fc9 f4bc dc46 5dbc 5fc5 4c3c 9ceb 6d3c
000003a0: ba36 a73c 4c10 edbb 8e89 3a3c 6499 fabc
000003b0: 12d7 273c 87e4 2b3c 77ae 873c 84a6 a5bc
000003c0: 2d6f 65bc 06ef c23b 0374 c5bc c53c dcbc
000003d0: 85b5 05bd 6cd1 66bb 7788 823c b00f b63b
000003e0: c879 02ba e5dc 213c c8f2 b3bc 8f96 933a
000003f0: 0eac 45bc a71d 92bc 8d6f c73c 761c ddbc

linear.0.bias f4 [16]
0.005592856 -0.023342459 0.3783185 -0.027997375 -0.022038296 -0.0336729 0.020804191 0.14686091
-0.03553733 -0.19863293 -0.010703121 0.06540611 -0.10509589 -0.02229406 -0.04896082 0.0061741085
00000000: 4744 b73b af38 bfbc f6b2 c13e c05a e5bc
00000010: a889 b4bc 98ec 09bd 8d6d aa3c b562 163e
00000020: 978f 11bd 6e66 4bbe 255c 2fbc a3f3 853d
00000030: 843c d7bd 08a2 b6bc 248b 48bd 2d50 ca3b

linear.2.weight f4 [10, 16]
-0.012179094 -0.10262513 -0.017590804 -0.096064165 -0.14482313 0.22026697 -0.0067507434 -0.077217504
-0.015730439 -0.29458177 0.06678412 0.34427634 0.46608397 -0.118719436 -0.20973627 -0.20298634
-0.08136909 -0.21569778 -0.313602 -0.15448734 -0.079757705 0.2144736 0.21984962 -0.32830232
0.13062811 0.1984506 0.0049949014 0.35148415 -0.014643233 -0.19602263 0.61114424 -0.17854092
-0.07800041 -0.2174693 0.1815854 0.23543818 -0.060074285 0.080482885 0.054001264 0.26051742
0.049641762 -0.22613744 -0.12073228 -0.050277382 0.114769876 -0.16567573 -0.299831 -0.10817589
0.19914617 0.09902906 0.23858164 0.17112797 0.023187077 -0.15124877 0.2330481 0.0025895128
-0.08913061 0.19180772 -0.1815392 -0.3869143 -0.05581659 0.07573417 0.06353587 0.19625439
0.044685837 -0.07620213 0.08876563 0.16327344 0.122953646 0.1194262 -0.14651182 0.19790387
0.16889624 -0.12504683 0.19701895 0.25823587 -0.62130517 0.13198356 -0.21057068 -0.25785455
0.00074959995 -0.1980134 0.27690092 0.1007495 0.038424402 0.10563118 -0.14520623 0.07318328
-0.06659491 0.36077917 0.17245698 -0.42251697 -0.09883106 -0.015380565 -0.18154846 -0.04641623
0.08311322 -0.19087358 -0.10987599 -0.22347979 -0.23775639 -0.09256284 -0.1001097 0.3629238
0.19911443 -0.3595503 0.0947719 -0.4562957 -0.25022915 -0.23987585 0.51256156 0.034940608
-0.07155086 -0.22762315 -0.22320059 -0.24157032 0.13505514 -0.24329056 0.04702831 0.14263824
-0.20771268 0.5298082 0.23400973 0.16615617 -0.312626 -0.11804275 -0.5302006 0.22860359
0.11901041 -0.17426379 0.3426028 -0.049415153 -0.07552486 0.06149796 0.23406039 -0.8360413
0.020192603 -0.120352134 -0.06888217 0.19994192 0.21655269 -0.21131465 0.18101843 0.16804278
-0.11572632 0.21557954 -0.71562916 0.02121122 0.14845419 0.08990574 0.09225524 -0.2502855
-0.045459148 0.30560172 -0.061423484 0.0010720004 0.4885343 -0.21224134 0.17146805 0.05187589
00000000: d38a 47bc 202d d2bd 971a 90bc 4abd c4bd
00000010: 844c 14be aa8d 613e 5735 ddbb 3624 9ebd
00000020: 1fdd 80bc 6cd3 96be 1dc6 883d fd44 b03e
00000030: 8fa2 ee3e 2d23 f3bd 1bc5 56be a7db 4fbe
00000040: d6a4 a6bd e1df 5cbe 7190 a0be ee31 1ebe
00000050: 0258 a3bd f89e 5b3e 4220 613e 3e17 a8be
00000060: 60c3 053e a236 4b3e 45ac a33b bbf5 b33e
00000070: 2cea 6fbc 28ba 48be f373 1c3f 6ed3 36be
00000080: aebe 9fbd 46b0 5ebe 86f1 393e b516 713e
00000090: 7410 76bd 36d4 a43d 6e30 5d3d 8a62 853e
000000a0: 2955 4b3d 9390 67be 7c42 f7bd a8ef 4dbd
000000b0: 780c eb3d e6a6 29be 7383 99be 528b ddbd
000000c0: f9ec 4b3e bfcf ca3d bf4e 743e 2c3c 2f3e
000000d0: d3f2 bd3c f5e0 1abe 29a4 6e3e d1b4 293b
000000e0: 1c8a b6bd 3e69 443e 69e5 39be a219 c6be
000000f0: f09f 64bd 841a 9b3d 181f 823d e9f6 483e
00000100: 7f08 373d dd0f 9cbd c1ca b53d 2731 273e
00000110: 1fcf fb3d b995 f43d 3207 16be 50a7 4a3e
00000120: 23f3 2c3e 470c 00be 56bf 493e 7e37 843e
00000130: db0d 1fbf b326 073e d79f 57be 8305 84be
00000140: cd80 443a 06c4 4abe f5c5 8d3e c155 ce3d
00000150: e862 1d3d 2955 d83d f1b0 14be 1ee1 953d
00000160: ea62 88bd 0cb8 b83e 9098 303e 2554 d8be
00000170: f067 cabd c4fe 7bbc d7e7 39be f21e 3ebd
00000180: 4437 aa3d 5d74 43be aa06 e1bd e3d7 64be
00000190: 6976 73be 9691 bdbd 5006 cdbd 26d1 b93e
000001a0: a7e4 4b3e fa16 b8be c517 c23d 979f e9be
000001b0: 091e 80be 04a2 75be 3c37 033f e21d 0f3d
000001c0: 4289 92bd 0b16 69be b28e 64be 365e 77be
000001d0: e54b 0a3e 2921 79be c2a0 403d c20f 123e
000001e0: a2b2 54be 83a1 073f 3fa0 6f3e d824 2a3e
000001f0: 8410 a0be 66c0 f1bd 3abb 07bf 0f17 6a3e
00000200: bbbb f33d 3572 32be a269 af3e 8b67 4abd
00000210: c7ac 9abd 49e5 7b3d 87ad 6f3e cd06 56bf
00000220: f56a a53c 2e7b f6bd 1812 8dbd 93bd 4c3e
00000230: fdbf 5d3e de62 58be e55c 393e 6813 2c3e
00000240: ec01 edbd e2c0 5c3e 7933 37bf 27c3 ad3c
00000250: 6004 183e 8020 b83d 51f0 bc3d 6c25 80be
00000260: 5f33 3abd d477 9c3e 3197 7bbd 5d82 8c3a
00000270: 2b21 fa3e cb55 59be 5295 2f3e d07b 543d

linear.2.bias f4 [10]
-0.80983865 -1.8481379 -0.34188464 0.3257623 1.2031026 -0.5940035 0.034990642 -0.16133706
1.0507926 0.7326412
00000000: 9651 4fbf c88f ecbf 810b afbe 51ca a63e
00000010: 44ff 993f 9d10 18bf 5952 0f3d 8b35 25be
00000020: 5f80 863f 608e 3b3f
