cifar_cnn_model_light.pth (torch, 75240 bytes, 8 tensors)

conv.0.weight f4 [8, 3, 3, 3]
0	0x3e4a6855	0.19766362
1	0x3e8998cf	0.26874396
2	0x3df133e8	0.117774785
3	0x3e507432	0.20356825
4	0x3dc6d81c	0.09709188
5	0x3e542176	0.2071589
6	0xbd25f3d3	-0.040515732
7	0x3e82e574	0.25565684
8	0x3eb48ad3	0.35262164
9	0xbe65ed16	-0.22453722
10	0x3e24157f	0.16023825
11	0x3db9c16f	0.09070098
12	0xbcae38a9	-0.021267252
13	0x397cde9a	0.00024115518
14	0x3dec0e65	0.11526183
15	0xbe350c9b	-0.1768059
16	0x3ded4f7f	0.11587428
17	0x3d85cc5b	0.06533118
18	0xbe8854fe	-0.26627344
19	0xbd6e3408	-0.05815509
20	0xbe070292	-0.13184574
21	0xbe921d24	-0.28537858
22	0xbe56bf39	-0.20971383
23	0x3d6de2ad	0.058077503
24	0xbec45d6d	-0.38352528
25	0xbe57769d	-0.21041341
26	0xbdb7cea9	-0.08974964
27	0xbe16cd36	-0.1472672
28	0x3e02c472	0.1277025
29	0xbea6da27	-0.32588312
30	0x3e788f23	0.24273352
31	0xbe6b5e8a	-0.22985283
32	0x3d8a7b73	0.06761827
33	0xbe17e350	-0.14832807
34	0xbe581386	-0.21101198
35	0x3e4fdf28	0.20299971
36	0x3dc60b41	0.09670115
37	0x3eb640b5	0.35596243
38	0xbd390da2	-0.045179017
39	0x3def974f	0.11698782
40	0x3d8ebe77	0.06969922
41	0xbd8a2636	-0.067455694
42	0xbbe9ad6a	-0.0071312683
43	0x3dc31422	0.095253244
44	0x3e8a9e73	0.27074012
45	0xbde809bc	-0.11329982
46	0x3e5f5bf5	0.21812423
47	0xbdf22282	-0.11822988
48	0x3e5e4110	0.21704507
49	0xbe41b3c0	-0.18916225
50	0xbe8dded8	-0.2770908
51	0xbe56d6e8	-0.20980418
52	0xbe948f43	-0.2901555
53	0x3e945b44	0.2897588
54	0x3e8b07b5	0.27154317
55	0x3e537d63	0.206533
56	0x3e067f60	0.13134527
57	0x3e6f08e9	0.23343243
58	0x3e8fcb70	0.28084898
59	0xbd53f172	-0.051743932
60	0x3d7890b8	0.06068489
61	0xbdba6f0e	-0.09103213
62	0x3e17abca	0.14811626
63	0xbd738c36	-0.059459887
64	0xbdc8a2be	-0.097966656
65	0xbe96e481	-0.2947121
66	0x3e65d41a	0.22444192
67	0xbe52b43b	-0.20576565
68	0xbe8e832f	-0.2783446
69	0xbe523df8	-0.20531452
70	0x3d61a10a	0.05508522
71	0xbb5a1c64	-0.0033281082
72	0x3e864014	0.26220763
73	0xbe817190	-0.25281954
74	0xbebbd9df	-0.3668966
75	0xbd78235b	-0.060580593
76	0xbe511c63	-0.20420985
77	0xbd76c56b	-0.060246866
78	0x3c887ca4	0.016660996
79	0x3da313af	0.07962739
80	0xbe0741e1	-0.13208725
81	0x3c973f12	0.018462691
82	0xbde191ce	-0.11014138
83	0x3d563855	0.052299816
84	0x3ea0b817	0.3139045
85	0xbe9c6da4	-0.305524
86	0x3d97bb84	0.07408813
87	0x3e1b9ed4	0.15197307
88	0xbe2473f7	-0.16059862
89	0xbd16363b	-0.036672812
90	0x3e3607f8	0.17776477
91	0xbed8e63e	-0.4236316
92	0x3db7a592	0.08967127
93	0x3ec59bd2	0.38595444
94	0xbedea820	-0.43487644
95	0xbe54f877	-0.20797907
96	0x3f07daf1	0.53068453
97	0xbde07be9	-0.10961134
98	0xbe2b1981	-0.16708948
99	0x3c04ecc6	0.008113092
100	0xbea36fd1	-0.31921247
101	0x3e5b738e	0.214308
102	0x3e9362b1	0.28786233
103	0xbe9a1cca	-0.3010009
104	0x3cf98ef4	0.030463673
105	0x3e8bc28a	0.2729686
106	0xbda738da	-0.081651405
107	0xbde7a574	-0.113108546
108	0xbe72ede9	-0.23723568
109	0xbdacea31	-0.08443106
110	0x3ec178f3	0.3778759
111	0xbe25a975	-0.16177924
112	0x3da62e32	0.0811428
113	0x3d29060b	0.04126553
114	0xbe579b96	-0.21055445
115	0x3c381c5b	0.011237229
116	0x3e79e06d	0.24402018
117	0xbe52b97b	-0.20578568
118	0xbdc589a8	-0.096453965
119	0x3d907466	0.07053451
120	0xbe22d076	-0.15899834
121	0xbd9bfcd2	-0.07616581
122	0x3e52b349	0.20576204
123	0xbe242dfd	-0.16033168
124	0xbd8442b1	-0.06458033
125	0x3df313d3	0.118690155
126	0xbe54437e	-0.20728871
127	0xbe0e2004	-0.138794
128	0x3eb49208	0.35267663
129	0xbe997208	-0.2996981
130	0x3e46def8	0.19420993
131	0x3e8a684d	0.270327
132	0xbea3650e	-0.31913036
133	0x3e76dd99	0.2410797
134	0x3e25b04e	0.16180536
135	0xbd4a5ace	-0.049403004
136	0xbe2efa0a	-0.1708757
137	0xbe174f4e	-0.14776346
138	0x3de631f5	0.11239997
139	0xbd0edb56	-0.034877144
140	0x3d9c39ca	0.0762821
141	0xbe520d2b	-0.20512836
142	0x3e0a9766	0.13534316
143	0xbe27d0d9	-0.16388263
144	0xbd08b126	-0.033372067
145	0xbc835016	-0.016029399
146	0x3dde2405	0.10846714
147	0x3e627f2c	0.22118825
148	0x3e3262bb	0.17420475
149	0xbe1147f7	-0.14187609
150	0x3b7f6380	0.0038969219
151	0xbdc5f7e2	-0.096664205
152	0xbd49416f	-0.049134668
153	0xbdfcb78b	-0.123396955
154	0x3e00923b	0.12555782
155	0xbe0373a4	-0.12837082
156	0x3e83066e	0.25590843
157	0x3e083387	0.13300906
158	0x3e134413	0.14381437
159	0xbdb04bf0	-0.08608234
160	0x3e4a2e76	0.19744286
161	0x3d8618e6	0.06547718
162	0x3e6b98a0	0.2300744
163	0x3d689901	0.05678654
164	0x3ebc963b	0.36833367
165	0xbcb51829	-0.022106247
166	0xbd427359	-0.047473285
167	0x3e8bc8f2	0.27301747
168	0xbdf3c38c	-0.11902532
169	0xbe96a077	-0.294193
170	0xbe79b26e	-0.24384472
171	0x3d711ee9	0.05886737
172	0x3e5fb5a2	0.21846631
173	0x3dc30cb3	0.095239066
174	0xbe7744ab	-0.24147289
175	0xbe13c6cf	-0.14431308
176	0xbe36f24e	-0.1786587
177	0xbe0c089b	-0.13675158
178	0xbd953246	-0.072849795
179	0xbec4e77b	-0.38457856
180	0x3ddc9916	0.10771386
181	0x3e491a02	0.19638827
182	0x3e305952	0.17221573
183	0xbdfabeb0	-0.12243402
184	0x3dd2322f	0.10263478
185	0x3e207bc0	0.15672207
186	0xbd1f7de2	-0.03893841
187	0xbe11efe7	-0.14251672
188	0xbdfd2bf8	-0.12361902
189	0xbe206692	-0.15664127
190	0xbe9b9191	-0.30384496
191	0xbe571af7	-0.2100638
192	0x3e993be8	0.29928517
193	0x3e95c4b2	0.2925163
194	0x3e24285e	0.16031024
195	0x3d731115	0.059342463
196	0x3d82b76a	0.0638264
197	0x3dd56a2c	0.10420641
198	0xbe38603f	-0.18005465
199	0xbe898406	-0.26858538
200	0xbec58b2c	-0.38582742
201	0x3dacb254	0.08432451
202	0x3e89b0fc	0.2689284
203	0x3e5efda3	0.21776442
204	0x3d98fecd	0.074704744
205	0xbd9e1c1f	-0.077202074
206	0xbd1d1205	-0.038347263
207	0xbeb1c2a7	-0.3471882
208	0xbeb1114c	-0.3458351
209	0xbd97b58d	-0.07407675
210	0x3ea1bbe8	0.31588674
211	0x3e519438	0.20466697
212	0x3c02d5e3	0.007985565
213	0xbc1012ba	-0.008793527
214	0xba7d3229	-0.00096586585
215	0x3e8a837e	0.27053446

conv.0.bias f4 [8]
0	0xbd4abe5f	-0.04949796
1	0x3c7d602e	0.015464826
2	0x3e4b2051	0.19836546
3	0x3d0cf328	0.03441158
4	0x3cced037	0.025245769
5	0x3daf7b94	0.085684925
6	0x3da419f3	0.08012762
7	0x3d94ba10	0.07262051

conv.3.weight f4 [16, 8, 3, 3]
0	0xbeb65c78	-0.35617423
1	0xbe339ed0	-0.17541051
2	0xbe074669	-0.13210453
3	0xbe259941	-0.16171743
4	0xbe95b7f5	-0.2924191
5	0xbe9a1e82	-0.301014
6	0xbe662f0d	-0.22478886
7	0xbdabf425	-0.08396176
8	0xbe1e52f7	-0.15461336
9	0x3e6e306a	0.23260656
10	0xbee29030	-0.4425063
11	0xbf48cf04	-0.7844088
12	0xbf1062f1	-0.5640097
13	0xbf48b57a	-0.7840191
14	0xbf3a1a99	-0.72696835
15	0xbe847979	-0.25873926
16	0xbe4cf057	-0.20013557
17	0xbed27355	-0.41103616
18	0xbe34b5d3	-0.17647485
19	0xbf09c82d	-0.5382107
20	0xbc9b7311	-0.018975766
21	0xbe82a746	-0.25518245
22	0xbe4803f7	-0.19532762
23	0x3dce7090	0.10080063
24	0xbdd6938c	-0.10477361
25	0x3c8b5f6b	0.017013272
26	0x3dfae5b2	0.12250842
27	0xbe12a2c2	-0.143199
28	0xbf0ea811	-0.557252
29	0xbf4999ae	-0.7875012
30	0xbf44c717	-0.76866287
31	0xbf59a350	-0.8501482
32	0xbf9a9748	-1.2077417
33	0xbf4e26ee	-0.8052815
34	0xbee8e2a8	-0.45485425
35	0xbea34312	-0.31887108
36	0x3ea85cab	0.328832
37	0x3e09ca25	0.13456018
38	0x3e427407	0.18989573
39	0xbdf903e4	-0.12158945
40	0xbe9bab15	-0.30403963
41	0xbeeb3018	-0.4593513
42	0xbe6607ed	-0.22463961
43	0xbebe9470	-0.37222624
44	0xbee19071	-0.44055513
45	0x3c7bb56c	0.015363079
46	0x3e0e6319	0.1390499
47	0x38902b52	6.874524e-05
48	0x3e6536ad	0.22384138
49	0x3e29a91f	0.16568421
50	0x3e5feacd	0.21866913
51	0x3e227370	0.15864348
52	0x3d1616c8	0.03664282
53	0x3e43b6df	0.19112729
54	0x3ebbeafb	0.36702713
55	0xbda4aa37	-0.080402784
56	0x3e7aa035	0.24475177
57	0xbcd5b8b3	-0.026089048
58	0x3d418f5c	0.04725586
59	0x3e6639de	0.22483012
60	0x3eaf27a0	0.3420992
61	0x3e1b2fbf	0.15154932
62	0x3dae86e8	0.08521825
63	0x3e8a3043	0.26989946
64	0x3d5b5da6	0.053556107
65	0xbda836a1	-0.08213545
66	0x3eb8e229	0.36110047
67	0xbe540c40	-0.20707798
68	0xbec0dec8	-0.3766997
69	0xbe3865b8	-0.18007553
70	0x3e216992	0.15762928
71	0x3e33e952	0.17569473
72	0xbd6fb20b	-0.058519404
73	0x3ca4446d	0.02005216
74	0xbbcfec9a	-0.006345344
75	0xbe002b35	-0.12516482
76	0xbdf01f30	-0.117246985
77	0xbdc06349	-0.09393937
78	0xbd26bbf6	-0.040706597
79	0xbe065430	-0.13118052
80	0xbe387bc6	-0.18015966
81	0xbd0a9d72	-0.033841558
82	0xbe0dd5b6	-0.13851056
83	0x3e2da24e	0.16956446
84	0x3ce9fe10	0.02856353
85	0x3cd239ee	0.025662389
86	0x3e4e9ecd	0.20177765
87	0x3d81076b	0.06300243
88	0xbcfb63f1	-0.030687304
89	0x3e2c4c7c	0.16826051
90	0x3e2c0ac3	0.1680098
91	0x3e154992	0.14578846
92	0x3e810fab	0.25207266
93	0x3de9da31	0.1141857
94	0x3cdffd3a	0.027342428
95	0xbb418f21	-0.0029534774
96	0xbe5b1c0a	-0.21397415
97	0xbe09af01	-0.13445665
98	0xbb2f74e4	-0.0026772553
99	0x3ee46a48	0.44612336
100	0xbd2cc692	-0.04218156
101	0x3e152343	0.14564233
102	0x3bf51304	0.0074790735
103	0xbe8c6d37	-0.27427074
104	0xbdbbe253	-0.09174027
105	0xbea2f216	-0.31825322
106	0xbc87614f	-0.016525893
107	0x3d91b511	0.07114614
108	0x3e0e27fe	0.13882443
109	0x3d4682ec	0.0484647
110	0xbb82da77	-0.003993328
111	0xbe83ab53	-0.25716648
112	0xbdc92479	-0.0982141
113	0xbdd47dcb	-0.103755556
114	0xbe631cae	-0.22178909
115	0xbe4238d8	-0.18966997
116	0xbeb8bb5f	-0.36080453
117	0xbddd6cc7	-0.10811763
118	0xbdd74be3	-0.10512521
119	0xbe026eab	-0.12737529
120	0xbe4e0b61	-0.20121528
121	0xbdc812f1	-0.09769238
122	0x3dfb281c	0.1226351
123	0xbdc71fef	-0.09722888
124	0xbde7f6b1	-0.113263495
125	0x3c301c7d	0.01074898
126	0x3f0a33d8	0.5398536
127	0x3f1a95a6	0.60384595
128	0x3f0eeddb	0.5583169
129	0x3e5f32a4	0.21796662
130	0x3bdb3b5e	0.0066904267
131	0x3e70b9e7	0.23508416
132	0x3ea1bd52	0.31589752
133	0x3ec6f84e	0.38861316
134	0x3ed02a60	0.4065733
135	0xbc90756b	-0.017634114
136	0xbe448b90	-0.19193864
137	0xbc389520	-0.011266023
138	0xbbb39924	-0.0054809023
139	0x3e0bd91b	0.13657038
140	0x3e894cbc	0.26816356
141	0x3e57a37b	0.21058457
142	0x3e14f81e	0.14547774
143	0xbd011398	-0.031512827
144	0xbe222d73	-0.1583765
145	0xbde4e553	-0.111765526
146	0xbca20c42	-0.019781236
147	0xbd04f228	-0.0324575
148	0xbe6a71f0	-0.22895026
149	0xbe02cd4c	-0.12773627
150	0xbe9f3fbe	-0.3110332
151	0xbe1fbc92	-0.15599278
152	0xbe160499	-0.14650191
153	0x3e6e5747	0.23275481
154	0x3ed42377	0.41433308
155	0x3eb4c563	0.35306844
156	0x3eaebe93	0.34129772
157	0x3ee7d566	0.45279998
158	0x3ebd0994	0.3692137
159	0x3f1bb1cc	0.6081817
160	0x3eab2170	0.33423948
161	0x3e4d4995	0.200476
162	0x3ccae367	0.024766637
163	0x3e7adaed	0.24497576
164	0x3eb129bf	0.34602162
165	0x3e881eb4	0.26585925
166	0x3eedf21b	0.46473774
167	0x3e0b8342	0.1362429
168	0x3f14a2d4	0.58060956
169	0x3eb134d7	0.34610626
170	0x3e2d1286	0.16901597
171	0xbeffeedd	-0.49986926
172	0xbebb576c	-0.36590135
173	0xbe16e281	-0.14734842
174	0xbe1b4443	-0.15162759
175	0x3e2e443e	0.1701822
176	0xbe28fb3c	-0.16502088
177	0x3e61c002	0.22045901
178	0xbe6f6954	-0.23380023
179	0xbce06f77	-0.0273969
180	0x3dc4e65a	0.096142486
181	0xbea99183	-0.3311883
182	0xbf046d3c	-0.5172918
183	0xbea7ca34	-0.32771456
184	0xbebb9c77	-0.3664281
185	0x3e3b65bf	0.18300532
186	0xbe779a17	-0.24179874
187	0x3ec5f717	0.38665077
188	0x3e9e445a	0.30911523
189	0x3d9cb6ad	0.0765203
190	0x3d9cd9f9	0.076587625
191	0xbdbff79c	-0.093733996
192	0x3d33ed6e	0.043927602
193	0x3d3f2e9f	0.04667532
194	0xbde7e4b6	-0.1132292
195	0xbcf4e909	-0.029896276
196	0xbcaa53f3	-0.020791983
197	0xbd08857c	-0.033330426
198	0xbf1d447b	-0.6143262
199	0x3e4a27ea	0.19741789
200	0x3eb6ee85	0.3572885
201	0xbb97caba	-0.004632321
202	0x3df0227b	0.11725327
203	0x3c8665b6	0.016405921
204	0x3e467035	0.19378741
205	0x3e2509cc	0.16117018
206	0x3db10c64	0.086449414
207	0x3db21e5f	0.08697199
208	0xbe34e6fa	-0.17666236
209	0x3d4a9df2	0.049467035
210	0xbe067f75	-0.13134558
211	0x3c79e777	0.015252939
212	0xbb5e9866	-0.0033965348
213	0xbeb78eaa	-0.35851032
214	0xbcf2c082	-0.02963281
215	0x3dd91f60	0.106016874
216	0x3e0211cf	0.12702106
217	0x3dea4e15	0.11440674
218	0xbd38a830	-0.04508227
219	0x3e34be66	0.17650756
220	0x3dfd3ae2	0.12364747
221	0x3d0434bc	0.032276854
222	0x3d22d3f0	0.0397529
223	0x3e0848f2	0.13309076
224	0x3e8994eb	0.26871428
225	0xbe4c49ec	-0.19950074
226	0xbe9a0ad0	-0.30086374
227	0xbea3e660	-0.320117
228	0xbe4bc88e	-0.19900724
229	0xbd746d97	-0.059674826
230	0xbd5909cc	-0.05298786
231	0x3df714af	0.12064492
232	0xbea2d806	-0.31805438
233	0xbd18b363	-0.03728045
234	0xbe3aaa03	-0.18228917
235	0xbe14d4e7	-0.14534341
236	0x3ebb310b	0.36560854
237	0xbd490017	-0.04907235
238	0xbdbfe4bb	-0.09369799
239	0x3d86796c	0.06566128
240	0x3e7e0482	0.24806407
241	0xbe4337b3	-0.19064216
242	0xbe1b15e0	-0.15145063
243	0xbf8d1924	-1.1023297
244	0xbf56771c	-0.83775496
245	0x3e29add5	0.16570218
246	0xbf401e85	-0.7504657
247	0xbf235283	-0.6379778
248	0xbf3e0915	-0.7423261
249	0xbf0f7ddf	-0.5605144
250	0xbe70599b	-0.23471682
251	0xbf36f7d6	-0.7147192
252	0x3ed6c88f	0.4194989
253	0x3de222c6	0.11041789
254	0xbf0ee0d0	-0.55811787
255	0x3ebc8bcc	0.36825407

conv.3.bias f4 [16]
0	0x3eae4919	0.34040144
1	0xbc7d0e88	-0.015445359
2	0x3e414030	0.18872142
3	0x3dbf1a73	0.09331217
4	0x3e87a5a3	0.26493558
5	0xbe98e40f	-0.29861495
6	0x3e13c2ce	0.14429781
7	0xbe17da13	-0.14829282
8	0x3db23fff	0.087036125
9	0x3e565dd5	0.20934232
10	0xbe1b8b9c	-0.15189976
11	0x3dd895a6	0.10575418
12	0x3ab26ec1	0.001361333
13	0xbe7d5e09	-0.24742903
14	0xbd878b08	-0.06618315
15	0xbe6f057a	-0.23341933

linear.0.weight f4 [16, 1024]
0	0x3c9d5ba4	0.019208737
1	0xbc717563	-0.01473746
2	0x3c5c0e89	0.0134312
3	0xba9f80a2	-0.0012169073
4	0xbb8597cf	-0.004076935
5	0x3a5e9e79	0.0008492242
6	0xbcd20837	-0.025638683
7	0xbcfed066	-0.031105231
8	0xbc74ee29	-0.01494936
9	0xbd0c4a48	-0.034250528
10	0xbca1692b	-0.019703468
11	0xbb71fac1	-0.0036923143
12	0xbcd2a10f	-0.025711564
13	0xbc943680	-0.018092394
14	0xbc300c9b	-0.010745193
15	0xbc0f08cc	-0.008730125
16	0xbcb757c5	-0.022380719
17	0xbb6dcba7	-0.0036284716
18	0xbc1bea4b	-0.009516309
19	0x3b798465	0.0038073298
20	0xbb73b275	-0.0037185226
21	0xbca9dd19	-0.02073531
22	0xbc822960	-0.01588887
23	0xbbb3e747	-0.005490217
24	0xbcc9c491	-0.024629863
25	0xbb2fdf9e	-0.0026836167
26	0xbbf066f1	-0.0073364903
27	0x3be53083	0.0069943084
28	0x3b147dc0	0.002265796
29	0x3c958fab	0.018256983
30	0xbbc9dbcc	-0.006160235
31	0xbce72f51	-0.028220804
32	0x3c10d031	0.008838699
33	0xbcd709ec	-0.026249848
34	0xbc1a6cba	-0.0094253365
35	0xbc79d612	-0.015248792
36	0xbc8b29a0	-0.016987622
37	0xbc88bdcd	-0.016692067
38	0x3cc137f1	0.023586245
39	0x3c510c73	0.012759316
40	0x3b675abb	0.0035301882
41	0x3cc658ed	0.024212325
42	0xbd090273	-0.0334496
43	0xb8b7565c	-8.742206e-05
44	0x3c73b839	0.014875465
45	0x3c80085c	0.015628986
46	0xbcf5c391	-0.03000048
47	0x3bc454a5	0.0059915357
48	0xbcbbdde0	-0.022932947
49	0xbbd01c90	-0.006351061
50	0xbc3ee3b4	-0.011650968
51	0xbcffc6d5	-0.03122274
52	0xbd0f1d1f	-0.03493988
53	0xbcd2727f	-0.025689362
54	0x3c1447bc	0.009050306
55	0x3c16283e	0.009164868
56	0xbd0457d8	-0.032310337
57	0xbc8a2a1a	-0.016865779
58	0xbb976013	-0.0046196072
59	0xbd03adda	-0.03214822
60	0x3c4c7010	0.01247789
61	0x3cbdd779	0.023174034
62	0x39d00a91	0.00039680724
63	0xbce83cbf	-0.028349278
64	0x3beec868	0.007287074
65	0x3c39dcec	0.011344176
66	0x3ccab63a	0.024745096
67	0xbc8835bc	-0.016627185
68	0xbce55a58	-0.02799718
69	0x3c60f290	0.013729706
70	0x3aff0080	0.0019455105
71	0xbc26d2b8	-0.010182075
72	0xbc568a18	-0.013094448
73	0xbc83ff66	-0.016112994
74	0x3ccf3b32	0.025296781
75	0xbbb0ae18	-0.0053918473
76	0x3cb8a106	0.02253772
77	0x3ce484b0	0.027895302
78	0x3b81b760	0.0039586276
79	0x3bda2148	0.0066567995
80	0xbb0b7a80	-0.0021282732
81	0x3cafd322	0.02146298
82	0xbce6adb2	-0.028158996
83	0x3c4b9d1c	0.0124275945
84	0xbba6d6d0	-0.0050915256
85	0x3c69c99c	0.014269259
86	0xb911f300	-0.00013918802
87	0xbc3d9384	-0.011570815
88	0xbb5d14e0	-0.0033734366
89	0x3c8a3cf8	0.016874775
90	0xbcb1ccb6	-0.02170406
91	0xbca1d140	-0.019753098
92	0xbbe55f50	-0.0069998875
93	0xbc39b708	-0.011335142
94	0x3c492238	0.012276225
95	0x3cac47c0	0.021030307
96	0xbb5b5680	-0.0033468306
97	0x3cf21120	0.029549181
98	0xbc55ec80	-0.013056874
99	0xbc8fa824	-0.01753623
100	0xbc653828	-0.0139904395
101	0xbcb0607e	-0.021530386
102	0xbcb37066	-0.021904182
103	0xbce41998	-0.027844235
104	0xbce2e332	-0.027696226
105	0x3c05a19c	0.008156206
106	0x3c9c1f64	0.019057937
107	0x3cf0584c	0.029338978
108	0x3cda0f64	0.026618667
109	0xbaebe760	-0.0017998032
110	0x3bc6b428	0.006063957
111	0xbc992b7c	-0.018697493
112	0x3c45e618	0.012078784
113	0xbcf5769c	-0.029963784
114	0x3c717f1c	0.014739778
115	0x3bbbd148	0.0057317354
116	0x3c1d56fc	0.009603258
117	0x3c3b77cc	0.011442136
118	0xbc6b0fc8	-0.014347024
119	0x3cdbacdc	0.026815824
120	0x3c745a70	0.01491414
121	0x3ca82a40	0.020527959
122	0x3b873f98	0.004127454
123	0x3ca0c3ba	0.01962458
124	0x3cac49cc	0.021031283
125	0x3c680e68	0.014163591
126	0x3cc30346	0.023805272
127	0xbbb9bb20	-0.005668059
128	0x3c7ca4ed	0.015420181
129	0x3b07ffaf	0.0020751765
130	0x3c601c1b	0.013678576
131	0x3ccf5ebc	0.025313728
132	0x3affe187	0.0019522168
133	0xbc89016b	-0.016724309
134	0xbc06eaea	-0.008234719
135	0x3b706cdb	0.0036685977
136	0x391432df	0.00014133331
137	0xbc5fcb25	-0.013659273
138	0x3c9e991c	0.019360118
139	0x3c5fab85	0.013651733
140	0xbcc8fa35	-0.02453337
141	0xbbfb587d	-0.0076704607
142	0xbc051ddc	-0.008124795
143	0xbcca7668	-0.024714664
144	0xba156913	-0.0005699556
145	0xbc70f2d6	-0.014706334
146	0xbcae1f70	-0.021255225
147	0xbc788f84	-0.015170936
148	0xbc853a61	-0.016263189
149	0x3ccaf802	0.024776462
150	0x3be0f28f	0.0068648527
151	0x3cd1ea35	0.025624374
152	0x3b617c68	0.0034406427
153	0x3b027b34	0.001990986
154	0x3bfd5ee8	0.007732261
155	0x398b19f9	0.00026531497
156	0xbcf2d5b8	-0.029642925
157	0xbcc14a29	-0.023594933
158	0xbc4fa9d6	-0.012674769
159	0xbb98a8b2	-0.004658782
160	0x3bd9b750	0.006644167
161	0x3be2dc9c	0.0069232713
162	0x3ca1276e	0.019672122
163	0x3aa294cd	0.0012403965
164	0xbc81503f	-0.015785335
165	0xbcea56a7	-0.028605772
166	0xbce55df0	-0.027998894
167	0xbcc2eccd	-0.023794556
168	0x3b8ccaef	0.0042966525
169	0x3c40a9ab	0.011759202
170	0x3cb601d9	0.022217678
171	0xbc75f07d	-0.01501095
172	0xbbf8ac11	-0.0075888713
173	0xbc6bfeca	-0.014404008
174	0xbbab97c7	-0.005236599
175	0x3ba0a69c	0.004902674
176	0xbbbe888a	-0.0058146166
177	0xbb71030d	-0.00367755
178	0xba98ce17	-0.0011658099
179	0x3bd568a3	0.006512718
180	0xbc6f4970	-0.014604911
181	0xbcc2a0f2	-0.023758385
182	0x3b135854	0.0022483068
183	0xbc10a9a7	-0.008829511
184	0xbc9dfe2e	-0.019286241
185	0x3c02fe0d	0.007995141
186	0xbb9ec78a	-0.0048455643
187	0xbc1e832b	-0.009674828
188	0xbca5f094	-0.020256318
189	0xbc176449	-0.009240218
190	0xbd01d995	-0.031701643
191	0x3b01b59d	0.0019792088
192	0xbb98be27	-0.00466134
193	0x3c62a53b	0.013833339
194	0xbb4bfaf2	-0.0031124917
195	0xbb2c7a49	-0.0026318005
196	0x3b5daea3	0.0033826015
197	0x3c98c5cc	0.018649004
198	0xbca30089	-0.019897716
199	0x3c5d9cee	0.0135261845
200	0x3b24a2c6	0.0025121435
201	0xbcd4cf44	-0.025977738
202	0x3bbc6fa2	0.0057506124
203	0xbcc38f0f	-0.023871927
204	0xbc7538e1	-0.014967174
205	0xbca40de6	-0.020026159
206	0xbcd82fe9	-0.026390033
207	0x3c9f9789	0.019481437
208	0xbd076c57	-0.033062305
209	0x3c2bf392	0.010495083
210	0xbd083719	-0.03325567
211	0xbc125e58	-0.008933626
212	0xbb561303	-0.003266514
213	0x3c8bf727	0.017085625
214	0xbc86ac16	-0.016439479
215	0x3b7d4125	0.0038643565
216	0xb997e4a8	-0.00028971327
217	0x3c593229	0.013256588
218	0xbb5679ac	-0.003272633
219	0x3bd750c1	0.006570906
220	0xbcc4ad12	-0.024008308
221	0xbcdbed01	-0.02684641
222	0x3cba1620	0.022715628
223	0xbce49121	-0.027901234
224	0xbc2b38a3	-0.010450515
225	0xbc11f28f	-0.008907928
226	0x3cd04ed4	0.025428213
227	0xbc42b568	-0.011884071
228	0xbcecec36	-0.028921228
229	0xbc55d950	-0.0130523
230	0x3c340acc	0.010988902
231	0x3bedb007	0.00725365
232	0x3ca9c21d	0.020722443
233	0xbc3cdefe	-0.011527775
234	0x3c1d1e71	0.009589777
235	0xbd0d77a0	-0.03453791
236	0x3be41d0c	0.0069614705
237	0x3c173044	0.009227816
238	0x3c763a80	0.015028596
239	0xbcbcd437	-0.02305041
240	0xbc5cbfd9	-0.013473474
241	0x3b1f4131	0.0024300332
242	0xbcdff1c6	-0.027336966
243	0xbcf5aba2	-0.029989067
244	0xbd1027b1	-0.035194103
245	0xbb5de408	-0.003385784
246	0x3c69e436	0.014275601
247	0x3b3dd554	0.0028966265
248	0xbb535db7	-0.0032251903
249	0x3bbcaddc	0.0057580303
250	0xbccae616	-0.024767917
251	0xbaf09db9	-0.0018357552
252	0xbc533f82	-0.012893559
253	0xbca8c8b0	-0.020603508
254	0x3cb2bd8e	0.021818902
255	0xbcf014c0	-0.02930677

linear.0.bias f4 [16]
0	0x3add2a32	0.0016873537
1	0xbccf2022	-0.025283877
2	0xbba83015	-0.005132685
3	0xbc9e5ff4	-0.019332863
4	0x3bfcac69	0.0077109826
5	0x3e2a82a5	0.166514
6	0x3c997476	0.01873229
7	0x3e179ffe	0.14807126
8	0xbd16a27c	-0.03677605
9	0xbc9dd38f	-0.019265918
10	0xbc280aee	-0.010256512
11	0xbc995491	-0.018717082
12	0xbe626d3c	-0.22111982
13	0xbcc5bfe3	-0.02413935
14	0x3c82c1b0	0.015961498
15	0x3c06e613	0.008233565

linear.2.weight f4 [10, 16]
0	0xbc980ad3	-0.018559849
1	0xbdf04d70	-0.1173352
2	0xbe3d8321	-0.18507053
3	0xbe0d6484	-0.13807875
4	0xbe078e9a	-0.13237992
5	0x3ec298de	0.38007253
6	0xbc0c6231	-0.0085683325
7	0xbed3a0ee	-0.41333717
8	0xbccb61cc	-0.024826907
9	0xbc8138c9	-0.015774148
10	0x3d625ac1	0.05526233
11	0x3d953229	0.07284958
12	0xbd90d99a	-0.07072754
13	0xbe0716de	-0.13192317
14	0xbd75d627	-0.060018685
15	0xbe558e65	-0.208551
16	0xbdc284b7	-0.094979696
17	0xbe58a09f	-0.21155022
18	0xbce2b872	-0.027675841
19	0xbe20e5a2	-0.15712598
20	0xbda6866b	-0.08131107
21	0x3ea88798	0.3291595
22	0x3e5f463f	0.2180414
23	0xbe83d784	-0.25750363
24	0x3df932a2	0.121678606
25	0x3e1f45ec	0.15554017
26	0x3bb36af8	0.005475398
27	0x3d28e3ce	0.041232876
28	0x3eb3e18f	0.35133025
29	0xbe53c777	-0.20681559
30	0x3e45c87f	0.19314764
31	0xbe43d29e	-0.19123313
32	0xbda38797	-0.07984846
33	0xbe5d87ea	-0.21633878
34	0xbe1183ee	-0.14210483
35	0x3e82819f	0.25489518
36	0xbc8c59ae	-0.017132606
37	0x3cf57f0a	0.029967804
38	0x3d55ac45	0.052166242
39	0x3d3d113a	0.046159007
40	0x3d3fa485	0.046787757
41	0x3b39a3a6	0.0028326302
42	0xbdf6485b	-0.120255195
43	0x3d18c5ff	0.0372982
44	0xbed20b41	-0.4102421
45	0xbe28b764	-0.16476208
46	0xbe3f49a2	-0.18680432
47	0xbdd114db	-0.10209056
48	0x3e57061b	0.20998423
49	0x3dba871f	0.091078036
50	0x3e092a78	0.13395107
51	0x3e24782e	0.1606147
52	0xbc0c6df7	-0.00857114
53	0xbe1b4569	-0.15163197
54	0x3e6cbdd3	0.23119287
55	0x3e6d0950	0.23148084
56	0xbdc38884	-0.09547523
57	0x3dc1c608	0.094615996
58	0xbe396a0a	-0.18106857
59	0x398106f5	0.0002460998
60	0xbe55cc66	-0.20878753
61	0x3d999e24	0.07500866
62	0xbe76168f	-0.24032043
63	0x3e591174	0.21198064
64	0x3d45992f	0.04824179
65	0xbd99b79b	-0.07505723
66	0x3e433847	0.19064437
67	0x3defb421	0.11704279
68	0x3e1b804c	0.1518566
69	0xbdbc561c	-0.091961116
70	0xbe17dee8	-0.14831126
71	0x3db8ff7b	0.09033104
72	0x3e322c9d	0.17399831
73	0xbc183ef0	-0.009292349
74	0x3e4a3b3a	0.19749156
75	0x3dece0a6	0.11566286
76	0xbe8bb430	-0.2728591
77	0x3e0454e5	0.1292301
78	0x3df30d62	0.11867787
79	0xbe70507c	-0.23468202
80	0x3c1ea963	0.00968394
81	0xbe54fa7b	-0.20798676
82	0x3dee6e75	0.11642162
83	0x3e021dcd	0.1270668
84	0x3d910ef4	0.0708293
85	0xbeca1058	-0.39465594
86	0xbe168194	-0.14697868
87	0x3eac9bd3	0.33712634
88	0xbd961153	-0.07327523
89	0x3e3d896a	0.1850945
90	0x3e3115fe	0.17293546
91	0xbdc6264c	-0.09675273
92	0xbe8bd2a5	-0.27309147
93	0xbc841097	-0.016121192
94	0x3e41f595	0.18941338
95	0xbd758cea	-0.05994884
96	0x3db208f9	0.08693118
97	0xbe428702	-0.18996814
98	0xbe240e54	-0.16021091
99	0xbe559063	-0.2085586
100	0xbe55b105	-0.20868309
101	0x3e9ed56c	0.31022203
102	0xbdeb339f	-0.11484455
103	0x3e65fa80	0.2245884
104	0x3e4d5052	0.20050171
105	0x3ccaf01e	0.0247727
106	0x3dc31415	0.09525315
107	0xbe1ace6a	-0.15117803
108	0xbee27ac9	-0.44234303
109	0xbe76be2c	-0.24095982
110	0x3e699479	0.22810544
111	0x3d05e399	0.032687757
112	0xbd96b1bb	-0.07358118
113	0xbe7259a3	-0.23667006
114	0x3d58801e	0.052856557
115	0xbe75107a	-0.23932067
116	0x3e321e65	0.17394407
117	0xbf3c5023	-0.7355978
118	0x3d7e3a0e	0.062067084
119	0x3dcd54f2	0.10025968
120	0xbe49267e	-0.1964359
121	0x3e35f3d9	0.17768802
122	0x3e701e8e	0.23449156
123	0x3e2a1f87	0.16613589
124	0x3eb0bf10	0.3452077
125	0xbdfeba22	-0.12437846
126	0xbd1b0db2	-0.037854858
127	0x3e5f8e06	0.21831521
128	0x3de822ab	0.113347374
129	0xbe363412	-0.17793301
130	0x3e75ff85	0.24023254
131	0xbd147b16	-0.036250196
132	0xbdb30285	-0.08740715
133	0x3eabd695	0.3356215
134	0x3e6ddae6	0.23228034
135	0xbf04fcf2	-0.51948464
136	0x3c867a67	0.016415788
137	0xbd10c3f4	-0.035343125
138	0xbda4ab93	-0.08040538
139	0x3dda9c4d	0.10674343
140	0x3db66d66	0.08907585
141	0xbe599c07	-0.21250926
142	0xbc4746fe	-0.012162922
143	0x3e1b95a5	0.15193804
144	0xbdfd31c8	-0.12363011
145	0x3e5b0060	0.21386862
146	0xbe590f68	-0.21197283
147	0x3da118d5	0.078660645
148	0x3e187e27	0.14891873
149	0xbe0f9ee9	-0.14025463
150	0x3db928c1	0.09040976
151	0xbe73fb66	-0.2382637
152	0xbd40f70c	-0.047110602
153	0x3e315254	0.17316562
154	0xbd4c4277	-0.049868073
155	0x3e4e5984	0.20151335
156	0x3f183282	0.5945207
157	0xbe653bf4	-0.22386152
158	0x3e4a08ec	0.19729966
159	0x3d6636ce	0.05620461

linear.2.bias f4 [10]
0	0x3f8ecdb7	1.1156529
1	0xc04103d0	-3.0158577
2	0x3fd1bcb0	1.6385708
3	0xbde6da77	-0.112721376
4	0x3fb4af1b	1.4115938
5	0xbea1752b	-0.31534705
6	0xbfec13e2	-1.8443568
7	0x3f075e0e	0.5287789
8	0x3f8abc9d	1.083881
9	0xbf9036a7	-1.1266679
